data.pth (torch, 6551 bytes, 6 tensors)

l1.weight f4 [8, 75]
0.44155005 -0.13578472 -0.37541538 -0.71521556 -1.07822 0.27233815 -0.21738735 -0.019758161
-0.23989865 0.42073932 -0.014994509 -0.7135239 -0.018012239 0.5553434 -0.0940645 -0.5280579
0.084592134 0.63149524 -0.2650158 0.38976583 -0.20206243 -0.69503844 0.4172907 -0.22468165
0.11755723 0.39640814 -0.20104358 -0.14766318 0.18002366 -0.17679477 0.07516947 0.025505824
0.1336598 1.4312308 0.3210988 -0.27562633 -0.2167403 0.31917563 0.42149565 0.37660488
0.1369654 0.1756438 -0.06972409 0.4070382 0.013562107 -0.49970064 0.28509176 -0.124167174
0.13926847 0.040325586 -0.041606687 -0.12984808 1.4783283 0.042613048 0.24609075 -0.4677601
0.63825965 0.042783633 0.38442647 0.4104606 0.43252495 0.6634787 0.35329673 0.5080944
-0.17704345 0.7051081 -0.30514252 -0.5942635 0.061513726 -0.2995585 -0.11451676 0.46243158
-0.41007766 -0.102021955 0.13242081 0.5456436 0.06890117 -0.03182517 -0.93041813 1.510934
0.5751552 0.23815599 0.3504383 -0.121119484 0.63291496 0.41163662 -1.3468012 0.37026504
0.12605533 -0.009017669 -0.37228453 0.56742126 0.9347226 -0.0814287 0.49660626 -0.26098794
-1.3344841 0.5385073 -0.07839927 0.47775882 0.5494763 -0.44837752 0.93147 -0.07738645
0.826511 0.90849864 0.6310521 0.16407464 -1.0934008 0.1562179 -0.40484446 -0.3871462
0.22931522 0.50677353 0.14622255 -0.33514467 0.07830923 0.6137769 0.43101624 0.3590473
-0.5698358 -0.09438892 0.07039149 0.49358132 0.36546436 0.6324923 -0.095142834 0.38262436
0.32751328 0.38208446 -0.65457815 0.95541024 -0.0018696412 0.59444094 0.71644086 0.43909323
0.14135563 -0.03326009 0.20743898 0.16806686 1.0242399 -0.24430187 -0.65635115 0.72223306
-0.36086598 -0.23326227 0.38091522 -0.18685423 0.47547403 0.1822554 0.14434995 1.1005074
0.23288961 -0.09787748 1.2086301 0.6297976 -0.0622633 -0.13333577 0.15830998 -0.729981
-0.25110897 1.1605651 -0.5173065 0.20681156 0.30743852 0.39468843 0.4994395 -0.57951665
-0.38902682 -0.48049644 0.27243268 0.8130515 -0.23189922 0.104773015 0.5355908 -0.78658074
0.0025995264 0.6866411 -0.20369178 0.7079397 0.7185686 0.6689938 0.29972166 0.30837584
0.092948325 -0.5183226 -0.52235407 -0.4591708 -0.40779033 -0.16021943 0.14868182 0.27341816
-0.5568578 -0.13073832 -0.12325692 0.4980521 -0.0043740068 1.1185434 -0.5170052 -0.33952162
-0.4447733 0.8454512 -1.3254327 -0.1982246 -0.37527034 -0.52198017 -0.5793179 0.10781504
-0.41493496 -0.67731637 0.055140637 -0.7220557 -0.36380094 -0.028144019 0.092439555 -0.65840024
0.14924107 0.4505838 0.73447543 0.3637626 -0.1795283 -0.20678815 -0.20001557 -0.42477322
-0.13335194 -0.2705716 0.238955 0.58104146 -0.7484099 2.0946684 -0.16660327 0.07971813
0.26392066 0.30447814 -0.7483239 0.4377033 1.4744654 0.85710484 0.5963458 0.022324678
0.51853096 -0.27366355 0.8285049 -0.06327671 0.454915 0.27323064 -1.2230234 0.26048216
-0.015897527 -0.33680406 -0.7447166 0.0542468 -0.70909286 -0.22563136 -0.68702376 -0.60301244
00000000: d912 e23e 260b 0bbe 7236 c0be 5e18 37bf
00000010: 1d03 8abf e86f 8b3e ca9a 5ebe dedb a1bc
00000020: fea7 75be 256b d73e 87ab 75bc 81a9 36bf
00000030: 678e 93bc fc2a 0e3f e3a4 c0bd cd2e 07bf
00000040: a43e ad3d aca9 213f 27b0 87be 638f c73e
00000050: 74e9 4ebe 0aee 31bf 20a7 d53e f212 66be
00000060: d8c1 f03d 02f6 ca3e 5ede 4dbe 0435 17be
00000070: 1f58 383e b009 35be 73f2 993d 97f1 d03c
00000080: 1dde 083e 9232 b73f 1067 a43e e51e 8dbe
00000090: 2bf1 5dbe fd6a a33e 47ce d73e 5bd2 c03e
000000a0: a840 0c3e f8db 333e 81cb 8ebd 5067 d03e
000000b0: 9a33 5e3c c3d8 ffbe 8cf7 913e 5c4b febd
000000c0: 659c 0e3e 712c 253d c66b 2abd e5f6 04be
000000d0: dd39 bd3f 058b 2e3d 37ff 7b3e 407e efbe
000000e0: fc64 233f e43d 2f3d 8cd3 c43e e427 d23e
000000f0: e973 dd3e bdd9 293f 4fe3 b43e 7912 023f
00000100: e14a 35be f781 343f a43b 9cbe a721 18bf
00000110: d1f5 7b3d bb5f 99be c387 eabd d5c3 ec3e
00000120: b3f5 d1be e3f0 d0bd 5299 073e 4daf 0b3f
00000130: 0e1c 8d3d 1c5b 02bd e22f 6ebf 4966 c13f
00000140: 5f3d 133f 2adf 733e a66c b33e 7e0d f8bd
00000150: b706 223f 09c2 d23e fb63 acbf 6193 bd3e
00000160: a614 013e d8be 13bc 149c bebe 8542 113f
00000170: fb49 6f3f 17c4 a6bd 2d43 fe3e 36a0 85be
00000180: 60d0 aabf 9ddb 093f cc8f a0bd ce9c f43e
00000190: 7baa 0c3f bd91 e5be d174 6e3f c97c 9ebd
000001a0: 3a96 533f 5e93 683f a18c 213f 2f03 283e
000001b0: 8ff4 8bbf 96f7 1f3e c647 cfbe 0738 c6be
000001c0: 9cd1 6a3e e9bb 013f 5dbb 153e 1598 abbe
000001d0: 9760 a03d 7c20 1d3f 29ae dc3e 0cd5 b73e
000001e0: c2e0 11bf fa4e c1bd 6a29 903d b1b6 fc3e
000001f0: 251e bb3e 04eb 213f 3fda c2bd 57e7 c33e
00000200: d2af a73e 93a0 c33e 6f92 27bf c495 743f
00000210: c00e f5ba 482d 183f ab68 373f d4d0 e03e
00000220: 88bf 103e bb3b 08bd e26a 543e b819 2c3e
00000230: 4b1a 833f 452a 7abe a106 28bf 44e4 383f
00000240: 6dc3 b8be 4edc 6ebe 5207 c33e b756 3fbe
00000250: 5571 f33e 29a1 3a3e 79d0 133e 6ddd 8c3f
00000260: 9d7a 6e3e fd73 c8bd 64b4 9a3f 6a3a 213f
00000270: cd07 7fbd 2c89 08be 031c 223e 09e0 3abf
00000280: 5b91 80be 668d 943f 336e 04bf 69c6 533e
00000290: 9568 9d3e 9a14 ca3e 89b6 ff3e 345b 14bf
000002a0: 862e c7be a103 f6be 4c7c 8b3e 2524 503f
000002b0: fd76 6dbe 3c93 d63d 7b1c 093f 5b5d 49bf
000002c0: d15c 2a3b b6c7 2f3f 9494 50be 893b 353f
000002d0: 1df4 373f 2d43 2b3f 1e75 993e 70e3 9d3e
000002e0: b15b be3d cab0 04bf ffb8 05bf 6f18 ebbe
000002f0: e5c9 d0be 9010 24be 0c40 183e 77fd 8b3e
00000300: 3c8e 0ebf 44e0 05be 206e fcbd af00 ff3e
00000310: d453 8fbb 6e2c 8f3f 745a 04bf c7d5 adbe
00000320: 53b9 e3be 7d6f 583f c7a7 a9bf 64fb 4abe
00000330: 6f23 c0be 7ea0 05bf 2e4e 14bf 22ce dc3d
00000340: 5b72 d4be 9b64 2dbf 26db 613d a4d8 38bf
00000350: 1e44 babe 498e e6bc f350 bd3d eb8c 28bf
00000360: a7d2 183e ebb2 e63e 9506 3c3f 173f ba3e
00000370: 44d6 37be 46c0 53be e2d0 4cbe e07b d9be
00000380: 698d 08be 5c88 8abe 9fb0 743e 22bf 143f
00000390: cb97 3fbf 0c0f 0640 0c9a 2abe 4243 a33d
000003a0: 9c20 873e 8fe4 9b3e 2892 3fbf a61a e03e
000003b0: 48bb bc3f 396b 5b3f 1eaa 183f 3ee2 b63c
000003c0: 72be 043f a11d 8cbe e618 543f 3897 81bd
000003d0: 9eea e83e e3e4 8b3e 088c 9cbf eb5d 853e
000003e0: 883b 82bc 9571 acbe bfa5 3ebf e431 5e3d
000003f0: 1c87 35bf e80b 67be cae0 2fbf 065f 1abf

l1.bias f4 [8]
0.7149572 0.930417 1.2376896 0.7487557 0.9670089 1.3902174 1.2932956 1.2771324
00000000: 6f07 373f cf2f 6e3f 9d6c 9e3f 74ae 3f3f
00000010: e58d 773f a5f2 b13f b68a a53f 1379 a33f

l2.weight f4 [8, 8]
-0.28133246 2.1293309 -0.8398098 1.2499801 0.7499752 0.26787415 -0.33956748 1.6047791
-0.42506266 -0.03920232 1.9315839 -0.86748064 0.4818684 2.5468771 0.862519 1.8037968
0.22981754 2.2347677 1.663398 1.3816942 -0.85359895 -0.34892172 -0.07164633 1.6360307
-0.8966455 -1.5431808 1.4549392 1.476447 0.17531554 -0.07172331 1.5435807 -0.120943554
1.7639215 0.7233875 -0.7546705 0.30040717 -0.18767223 0.29229972 1.6131269 -2.064887
-0.07240817 -0.50380313 -0.4298651 -0.15265137 -0.43899426 0.07313834 0.17514718 0.20684758
1.465619 0.17948656 -0.4374263 -0.60386205 2.3805983 -1.1547691 0.91547287 0.6574418
-0.15379171 0.95855886 -0.048437856 1.817638 0.28004968 -1.401355 0.5317438 0.6653586
00000000: cf0a 90be f546 0840 c6fd 56bf 59ff 9f3f
00000010: 60fe 3f3f cd26 893e cadb adbe 6769 cd3f
00000020: d0a1 d9be 9d92 20bd 243e f73f 3613 5ebf
00000030: 74b7 f63e 0900 2340 0cce 5c3f d0e2 e63f
00000040: 4a55 6b3e 6f06 0f40 3aea d43f 5bdb b03f
00000050: 7685 5abf dea5 b2be 50bb 92bd 7469 d13f
00000060: 8f8a 65bf f386 c5bf 733b ba3f 37fc bc3f
00000070: eb85 333e ace3 92bd 0d94 c53f 41b1 f7bd
00000080: 2ec8 e13f ec2f 393f 1632 41bf f8ce 993e
00000090: 262d 40be 4fa8 953e f17a ce3f 1c27 04c0
000000a0: bc4a 94bd 3ef9 00bf 4717 dcbe a450 1cbe
000000b0: dbc3 e0be 8ec9 953d c859 333e dacf 533e
000000c0: 6799 bb3f 53cb 373e 57f6 dfbe b496 1abf
000000d0: b95b 1840 79cf 93bf 6e5c 6a3f 1b4e 283f
000000e0: 937b 1dbe 1d64 753f c666 46bd 5da8 e83f
000000f0: ac62 8f3e 9a5f b3bf 5d20 083f f154 2a3f

l2.bias f4 [8]
0.058802053 1.2368553 0.15075953 0.50480837 0.6966502 -0.43265602 0.16484421 -0.16069517
00000000: 6cda 703d 4651 9e3f b560 1a3e 1f3b 013f
00000010: ab57 323f 1785 ddbe eccc 283e 468d 24be

l3.weight f4 [17, 8]
-2.439212 0.70916474 -2.023349 0.49895582 -0.48115647 0.28310332 -1.9739045 -0.8768832
-0.17884713 -0.37976274 -0.17809102 0.5322784 -1.4391598 -0.15969719 0.28651193 0.26697093
0.48112434 -2.104363 0.32329702 -1.7743137 0.038337637 0.18344286 0.25262663 0.2274605
0.33215022 0.1253771 -0.089457445 -1.6606838 -1.3098865 -0.13807137 0.6266853 -0.9581125
-0.11220556 0.39202762 0.94356424 -1.3260403 -2.2523968 0.12655382 -1.7579378 -2.242292
0.26308894 0.81716764 -1.3189938 -0.9364776 -2.4373012 0.05793511 -1.3202001 -1.058817
0.12117167 -0.27610508 0.5752281 0.10652273 -1.7753439 -0.24711327 -1.5668263 0.042978927
-2.172276 0.7582769 0.38057935 0.30854845 -2.8534424 -0.22117889 -1.3149513 -2.063619
-1.6805986 0.18835239 -0.13966577 0.0009892327 -0.79823506 0.015986798 0.9462913 -1.7900951
-1.8597437 -0.17691335 0.40309444 0.9066566 -0.818787 0.016784785 -1.4278891 -0.023364129
0.7760996 -1.0010711 0.16619173 -0.89309007 -1.7041813 -0.079897866 0.06314208 0.67742634
-0.3815034 -0.98550713 0.009860014 -0.54022306 0.23730372 0.07164132 0.658371 -0.23552689
0.02544365 -0.8268292 0.42832232 -0.2529144 -0.14703724 -0.39336136 -0.6768537 0.3012202
-2.000072 -1.0082728 -0.28775004 0.6065308 0.26394692 0.005771355 -0.3118858 0.28745773
-2.4183147 -0.2106406 -0.9507632 0.2900704 0.75280476 0.031408153 -0.21132176 -2.323056
-2.3953269 -0.9269833 -1.3169699 -0.39405465 0.7698915 0.19088161 0.7202407 -0.57158965
-0.9204991 0.5068235 -0.11629272 -1.8116004 0.36630332 0.14318354 -1.2197665 -1.0353277
00000000: 0d1c 1cc0 d28b 353f 8d7e 01c0 2377 ff3e
00000010: 245a f6be ebf2 903e e7a8 fcbf 6b7b 60bf
00000020: b423 37be 4370 c2be 7e5d 36be 6643 083f
00000030: 6336 b8bf a987 23be b1b1 923e 6ab0 883e
00000040: ee55 f63e e2ad 06c0 3087 a53e b61c e3bf
00000050: ed07 1d3d 72d8 3b3e 4758 813e 68eb 683e
00000060: 980f aa3e db62 003e 7735 b7bd 4991 d4bf
00000070: 5caa a7bf 9562 0dbe 736e 203f dc46 75bf
00000080: 07cc e5bd d8b7 c83e 6d8d 713f b0bb a9bf
00000090: 4527 10c0 5397 013e 1b04 e1bf b681 0fc0
000000a0: 98b3 863e e631 513f cad4 a8bf ffbc 6fbf
000000b0: befc 1bc0 5e4d 6d3d 51fc a8bf 5187 87bf
000000c0: da28 f83d a55d 8dbe 2642 133f 9728 da3d
000000d0: 783e e3bf 430b 7dbe c48d c8bf ac0a 303d
000000e0: 9206 0bc0 6f1e 423f 4cdb c23e 10fa 9d3e
000000f0: cd9e 36c0 b87c 62be 5350 a8bf 5512 04c0
00000100: db1d d7bf 73df 403e 8b04 0fbe 24a9 813a
00000110: 2259 4cbf bff6 823c 2640 723f d621 e5bf
00000120: 150c eebf c628 35be 6562 ce3e a61a 683f
00000130: 069c 51bf 3f80 893c 12c5 b6bf 2166 bfbc
00000140: 77ae 463f 1923 80bf 2a2e 2a3e 8da1 64bf
00000150: 9d22 dabf 7ea1 a3bd a350 813d d06b 2d3f
00000160: 6a54 c3be 324a 7cbf e58b 213c 0f4c 0abf
00000170: bfff 723e afb8 923d 008b 283f f62d 71be
00000180: 346f d03c 14ab 53bf 104d db3e ff7d 81be
00000190: ee90 16be a966 c9be 4946 2dbf 8939 9a3e
000001a0: 2e01 00c0 150f 81bf f953 93be 9a45 1b3f
000001b0: 0d24 873e a21d bd3b 7faf 9fbe a92d 933e
000001c0: abc5 1ac0 2bb2 57be 3865 73bf 1c84 943e
000001d0: d0b7 403f d6a5 003d bb64 58be f3ac 14c0
000001e0: 094d 19c0 c74e 6dbf 7892 a8bf 88c1 c9be
000001f0: 9c17 453f 7876 433e b261 383f b353 12bf
00000200: d4a5 6bbf 2fbf 013f e12a eebd 86e2 e7bf
00000210: 1c8c bb3e b59e 123e 4f21 9cbf 9e85 84bf

l3.bias f4 [17]
0.45189512 -0.21422584 0.38889018 -0.24697617 -0.09439344 0.4435082 -0.2494329 0.05018876
-0.3505782 0.044112213 -0.35017443 -0.39049566 -0.4472694 -0.4270439 0.12526695 -0.24306628
0.6932887
00000000: cc5e e73e 055e 5bbe 9d1c c73e 52e7 7cbe
00000010: 5951 c1bd 8213 e33e 576b 7fbe bb92 4d3d
00000020: fc7e b3be 02af 343d 104a b3be 0cef c7be
00000030: 7f00 e5be 80a5 dabe fb45 003e 5ee6 78be
00000040: 5e7b 313f
